2020-03-10 23:37:40,881 | INFO | Namespace(batch_size=2000, continue_training=False, device=device(type='cuda'), epoch=100000, eval_val=True, latent_dim=6, log_interval=10, lr=0.0001, num_workers=0, save_interval=100, signal_len=60, train_file='hr_all_nsr_np.npy', use_gpu=True)
2020-03-10 23:37:40,929 | INFO | training set length: 94058
2020-03-10 23:37:40,929 | INFO | validation set length: 11757
2020-03-10 23:37:40,929 | INFO | test set length: 11758
2020-03-10 23:37:45,448 | INFO | model structure:
 AutoEncoder(
  (encoder): Encoder(
    (features): Sequential(
      (0): ConvTranspose1d(1, 64, kernel_size=(5,), stride=(1,))
      (1): ReLU(inplace=True)
      (2): Conv1d(64, 64, kernel_size=(7,), stride=(2,), padding=(3,))
      (3): BatchNorm1d(64, eps=1e-05, momentum=0.1, affine=True, track_running_stats=True)
      (4): ReLU(inplace=True)
      (5): Conv1d(64, 32, kernel_size=(5,), stride=(2,), padding=(2,))
      (6): BatchNorm1d(32, eps=1e-05, momentum=0.1, affine=True, track_running_stats=True)
      (7): ReLU(inplace=True)
      (8): Conv1d(32, 32, kernel_size=(3,), stride=(1,), padding=(1,))
      (9): BatchNorm1d(32, eps=1e-05, momentum=0.1, affine=True, track_running_stats=True)
      (10): ReLU(inplace=True)
      (11): Conv1d(32, 16, kernel_size=(3,), stride=(2,), padding=(1,))
      (12): BatchNorm1d(16, eps=1e-05, momentum=0.1, affine=True, track_running_stats=True)
      (13): ReLU(inplace=True)
      (14): Conv1d(16, 8, kernel_size=(3,), stride=(1,), padding=(1,))
      (15): BatchNorm1d(8, eps=1e-05, momentum=0.1, affine=True, track_running_stats=True)
      (16): ReLU(inplace=True)
    )
    (avgpool): AdaptiveAvgPool2d(output_size=(6, 6))
  )
  (decoder): Decoder(
    (net): Sequential(
      (0): Upsample(size=16, mode=nearest)
      (1): Conv1d(6, 16, kernel_size=(3,), stride=(1,), padding=(1,))
      (2): BatchNorm1d(16, eps=1e-05, momentum=0.1, affine=True, track_running_stats=True)
      (3): ReLU(inplace=True)
      (4): Upsample(size=32, mode=nearest)
      (5): Conv1d(16, 32, kernel_size=(5,), stride=(1,), padding=(2,))
      (6): BatchNorm1d(32, eps=1e-05, momentum=0.1, affine=True, track_running_stats=True)
      (7): ReLU(inplace=True)
      (8): Upsample(size=60, mode=nearest)
      (9): Conv1d(32, 32, kernel_size=(5,), stride=(1,), padding=(2,))
      (10): BatchNorm1d(32, eps=1e-05, momentum=0.1, affine=True, track_running_stats=True)
      (11): ReLU(inplace=True)
      (12): Conv1d(32, 16, kernel_size=(3,), stride=(1,), padding=(1,))
      (13): BatchNorm1d(16, eps=1e-05, momentum=0.1, affine=True, track_running_stats=True)
      (14): ReLU(inplace=True)
      (15): Conv1d(16, 1, kernel_size=(3,), stride=(1,), padding=(1,))
    )
  )
)
2020-03-10 23:37:47,655 | INFO | ('epoch: 0', 'total_step: 47', 'train_loss: 0.2501078546', 'val_loss: 0.1346691996')
2020-03-10 23:38:08,261 | INFO | ('epoch: 10', 'total_step: 527', 'train_loss: 0.0157068893', 'val_loss: 0.0024544559')
2020-03-10 23:38:28,863 | INFO | ('epoch: 20', 'total_step: 1007', 'train_loss: 0.0057985322', 'val_loss: 0.0013645318')
…
